Sot_STGCNN/checkpoint/sot-stgcnn-lasot_1_300_nr_6_4/val_best.pth (torch, 18071 bytes, 28 tensors)

st_gcns.0.gcn.conv.bias f4 [5]
0.47365668 -0.17785722 -0.20470887 -0.30771992 -0.45300287
00000000: 2183 f23e 3420 36be 349f 51be 778d 9dbe
00000010: feef e7be

st_gcns.0.tcn.0.weight f4 [5]
0.5864521 0.93608665 0.6340801 1.214509 2.5802283
00000000: ba21 163f 60a3 6f3f 1353 223f 0875 9b3f
00000010: 7622 2540

st_gcns.0.tcn.0.bias f4 [5]
1.4120858 -1.0664706 1.5834199 -0.79541254 -1.2449841
00000000: 3abf b43f 1c82 88bf 81ad ca3f 28a0 4bbf
00000010: a45b 9fbf

st_gcns.0.tcn.0.running_mean f4 [5]
0.0 0.0 0.0 0.0 0.0
00000000: 0000 0000 0000 0000 0000 0000 0000 0000
00000010: 0000 0000

st_gcns.0.tcn.0.running_var f4 [5]
0.44814026 0.18523617 0.52199 0.13300586 0.0007722358
00000000: a472 e53e 8dae 3d3e 23a1 053f b032 083e
00000010: de6f 4a3a

st_gcns.0.tcn.2.weight f4 [5, 5, 3, 1]
-0.13583882 -0.38706017 -0.36150506 -0.17269892 -0.009388953 0.06878264 0.15256116 -0.60091794
0.13164406 0.037512258 -0.22481404 -0.012003492 -0.06933329 0.059171006 -0.051873375 -0.9971256
-1.4440521 -0.08049599 -0.12692297 0.09217135 0.0040538157 -0.9714824 -1.3074745 -0.063820444
-0.10945531 0.22724411 0.0473729 0.12571748 2.3072383 -0.057218663 0.92420924 0.054783523
-0.2059457 -0.27327904 -0.74908894 -0.23200524 0.105561584 1.3755229 0.009182561 -0.3865136
-0.8320448 -0.0691787 -0.43746784 -0.56649435 0.09794876 0.18310058 -0.25893185 0.12499328
0.21607074 0.2432729 -0.44236174 0.1217714 0.03545932 0.31140104 0.25555068 -0.3141721
0.3458854 -0.11145532 0.124390736 -0.6064301 -0.32052395 0.2631861 -0.12886713 0.20441008
0.06551541 0.31463578 0.32678607 -0.53874326 -0.23319152 -0.10956615 0.011477893 -0.11024244
0.033831395 -0.0067969696 0.013004878
00000000: 5519 0bbe c02c c6be 3117 b9be fcd7 30be
00000010: 20d4 19bc eadd 8c3d fe38 1c3e c2d5 19bf
00000020: b3cd 063e 74a6 193d a735 66be 4baa 44bc
00000030: 9dfe 8dbd 4c5d 723d 2d79 54bd a043 7fbf
00000040: b3d6 b8bf 15db a4bd 18f8 01be 55c4 bc3d
00000050: dfd5 843b 12b3 78bf 535b a7bf 4bb4 82bd
00000060: 1b2a e0bd aeb2 683e 160a 423d 15bc 003e
00000070: cba9 1340 1e5e 6abd fa98 6c3f b064 603d
00000080: 6ee3 52be 3beb 8bbe 4bc4 3fbf c892 6dbe
00000090: ac30 d83d 2211 b03f 7472 163c 1ce5 c5be
000000a0: e300 55bf 90ad 8dbd c9fb dfbe c605 11bf
000000b0: 5c99 c83d b87e 3b3e b792 84be 7afc ff3d
000000c0: a641 5d3e 881c 793e 3d7d e2be 4963 f93d
000000d0: cb3d 113d f56f 9f3e 8ad7 823e 2adb a0be
000000e0: e417 b13e b042 e4bd 92c0 fe3d 013f 1bbf
000000f0: b71b a4be 54c0 863e bff5 03be e050 513e
00000100: f12c 863d f117 a13e 8150 a73e 14eb 09bf
00000110: c2c9 6ebe 3864 e0bd c60d 3c3c cac6 e1bd
00000120: ca92 0a3d 1db9 debb 6912 553c

st_gcns.0.tcn.2.bias f4 [5]
-0.049307313 0.19229905 -0.095712714 0.056863643 0.09553268
00000000: 77f6 49bd 0bea 443e 0705 c4bd dae9 683d
00000010: a3a6 c33d

st_gcns.0.tcn.3.weight f4 [5]
0.037094183 0.41052908 0.20625871 0.043867998 0.008113382
00000000: 12f0 173d de30 d23e 7c35 533e eeae 333d
00000010: feed 043c

st_gcns.0.tcn.3.bias f4 [5]
0.0026329204 -0.23820725 -0.013556515 -0.004039299 -0.0031358544
00000000: 138d 2c3b 9aec 73be 251c 5ebc 195c 84bb
00000010: e882 4dbb

st_gcns.0.tcn.3.running_mean f4 [5]
-2.0097446 -3.379938 0.5901279 0.1634491 -0.58338034
00000000: a89f 00c0 e750 58c0 9f12 173f 335f 273e
00000010: 6a58 15bf

st_gcns.0.tcn.3.running_var f4 [5]
0.13638227 2.1496344 1.4100575 0.37790364 0.36213952
00000000: cba7 0b3e 9c93 0940 c47c b43f 967c c13e
00000010: 5a6a b93e

st_gcns.0.residual.0.bias f4 [5]
0.41845453 -0.2004915 -0.4881529 -0.23921962 0.2249849
00000000: ac3f d63e a54d 4dbe 2def f9be fdf5 74be
00000010: 7162 663e

st_gcns.0.residual.1.weight f4 [5]
0.45978943 0.004397455 0.36390784 0.09862272 1.6572142
00000000: 8569 eb3e 8718 903b 2152 ba3e b5fa c93d
00000010: 981f d43f

st_gcns.0.residual.1.bias f4 [5]
0.003335065 0.47404572 0.85094815 0.119961135 -0.36242336
00000000: 1b91 5a3b 1fb6 f23e bdd7 593f 2fae f53d
00000010: 8e8f b9be

st_gcns.0.residual.1.running_mean f4 [5]
0.26365757 -0.3101813 -0.36890683 -0.24145831 0.22316724
00000000: 20fe 863e 15d0 9ebe 5be1 bcbe d940 77be
00000010: f485 643e

st_gcns.0.residual.1.running_var f4 [5]
105.17479 91.981285 65.97856 2.0217533 0.010809873
00000000: 7e59 d242 6bf6 b742 06f5 8342 6864 0140
00000010: e51b 313c

tpcnns.0.weight f4 [4, 6, 3, 3]
-0.25685003 -0.070811674 -0.099747494 0.23185682 -0.33405474 -0.22533451 0.015588282 0.09448477
0.10462748 -0.13141711 -0.1277779 -0.31844234 0.1361378 -0.11232934 0.012112067 0.7349528
0.74119335 0.7179422 -0.26072818 -0.18626738 -0.04188136 -0.1908494 -0.1388733 -0.13461296
-0.050700348 -0.049097437 -0.1087722 -0.9523688 -0.29691932 -0.947622 0.06311882 0.058956526
-0.025740007 -0.17091067 -0.101283126 -0.10077145 -0.2936111 -0.32691586 -0.5129723 0.12442959
0.09794554 0.18440023 0.02356013 0.11929813 0.19613098 -0.91970104 -0.9687998 -0.95791596
-0.08506817 -0.10707931 -0.07979284 -0.07212788 0.016136905 -0.009734936 -0.016099242 -0.3204022
-0.009150757 0.13330996 -0.33636686 0.02698933 0.11305945 -0.080683954 0.10254034 0.09970201
-0.041531045 -0.16374348 -0.15050162 -0.20075409 -0.07216586 0.082559064 0.056605455 0.018579703
-0.51729184 -0.4359752 -0.39227086 -0.53107524 -0.45150414 -0.3361323 0.03379338 0.08968435
0.022029024 -0.37104195 0.011664731 -0.17814134 -0.23865564 -0.17027646 -0.44031727 -0.59549254
-0.93806005 -0.4879526 0.067057036 -0.2935939 0.34353945 -0.08081799 -0.7820618 0.24380758
0.4449867 -1.3384887 0.710937 -0.6061446 -0.6673579 -0.58428866 -0.45129052 -0.44037428
-0.40272596 -0.16668311 -0.20519382 -0.12698656 0.18731529 -0.27599353 0.22776876 0.77125615
-0.691737 0.38452765 0.58260787 -0.8775236 0.41282314 0.2655714 0.047866244 0.26827177
0.030198729 -0.0032538017 0.0760655 -0.042251322 0.006417031 0.0119087 0.18353552 -0.021862382
-0.021608781 -0.19968906 -0.12626402 -0.037999302 -0.22549562 -0.06990426 -0.12174819 0.012632932
-0.23389241 -0.23144479 -0.012594224 -0.049814623 -0.018128246 -0.039377604 -0.22465897 -0.16665776
-0.116719864 0.041818205 -0.15619598 -0.48029983 -0.47798657 -0.28135738 -0.80105966 -0.37894753
-0.2363943 0.2144077 0.45157215 0.2106336 0.4265288 0.28612262 0.22282137 0.68614703
0.5222924 1.3977935 0.42507198 -0.40159363 0.29171896 0.35772642 -0.36068523 0.3885299
0.34113842 -0.2859629 0.36671105 0.15750705 0.17262858 0.22992927 -0.12193368 -0.057533342
-0.05084575 -0.021418935 -0.021903003 -0.051980417 -0.10567505 -0.022753296 -0.0137566505 -0.36355236
-0.2787671 -0.26872954 0.14171988 -0.035755526 0.004369717 0.034430195 -0.018650841 -0.0039777025
0.14442667 0.11938838 0.09882906 -0.48912326 -0.65584254 -0.45723218 -0.025190718 0.12020649
-0.17859708 -0.0713592 0.29795223 0.003375048 -0.7020053 -0.37502524 -1.0089191 0.03309297
-0.021157414 -0.047280047 0.057125635 -0.0015805651 0.07233363 -0.03346657 -0.057208695 -0.010088979
00000000: d981 83be b605 91bd 6a48 ccbd e06b 6d3e
00000010: 3909 abbe 17be 66be fe65 7f3c 3b81 c13d
00000020: ef46 d63d 3592 06be 36d8 02be e00a a3be
00000030: b567 0b3e ed0c e6bd b171 463c de25 3c3f
00000040: d9be 3d3f 0fcb 373f 2a7e 85be e0bc 3ebe
00000050: ca8b 2bbd 066e 43be cd34 0ebe fbd7 09be
00000060: 2bab 4fbd 651a 49bd f6c3 debd 71ce 73bf
00000070: cf05 98be 5b97 72bf 7144 813d 667c 713d
00000080: b5dc d2bc 3503 2fbe 876d cfbd 4361 cebd
00000090: 3254 96be 8461 a7be 2752 03bf f1d4 fe3d
000000a0: ac97 c83d 6ad3 3c3e 2c01 c13c 9452 f43d
000000b0: 8fd6 483e 8771 6bbf 4403 78bf fb39 75bf
000000c0: 3938 aebd 664c dbbd 6e6a a3bd c8b7 93bd
000000d0: 8b31 843c 487f 1fbc 8fe2 83bc c20b a4be
000000e0: 0fed 15bc 6882 083e 4738 acbe ba18 dd3c
000000f0: b78b e73d a13d a5bd ab00 d23d 9130 cc3d
00000100: 751c 2abd 5fac 27be 191d 1abe 7b92 4dbe
00000110: b2cb 93bd ba14 a93d 1fdb 673d 7634 983c
00000120: 3d6d 04bf 2438 dfbe bad7 c8be 8cf4 07bf
00000130: 8d2b e7be 8819 acbe ed6a 0a3d 6eac b73d
00000140: 3676 b43c 36f9 bdbe 6e1d 3f3c af6a 36be
00000150: 2562 74be f45c 2ebe 4471 e1be 3372 18bf
00000160: b424 70bf ecd4 f9be 3355 893d f151 96be
00000170: 67e4 af3e e783 a5bd 3435 48bf b2a8 793e
00000180: 4cd5 e33e 9953 abbf f8ff 353f 4b2c 1bbf
00000190: f8d7 2abf f193 15bf 8d0f e7be bd78 e1be
000001a0: 1932 cebe faae 2abe 541e 52be c408 02be
000001b0: 94cf 3f3e 064f 8dbe 373c 693e 0b71 453f
000001c0: ad15 31bf cfe0 c43e ca25 153f 63a5 60bf
000001d0: 8e5d d33e f9f8 873e 650f 443d eb5a 893e
000001e0: 5363 f73c bc3d 55bb 3bc8 9b3d b90f 2dbd
000001f0: f545 d23b b51c 433c bcf0 3b3e bd18 b3bc
00000200: e604 b1bc 4a7b 4cbe 5b4b 01be 28a5 1bbd
00000210: 53e8 66be f729 8fbd 1d57 f9bd 5bfa 4e3c
00000220: 7e81 6fbe ddff 6cbe 0158 4ebc 6b0a 4cbd
00000230: b081 94bc 694a 21bd 000d 66be 55a8 2abe
00000240: d30a efbd 9149 2b3d d7f1 1fbe dce9 f5be
00000250: a8ba f4be 130e 90be 3f12 4dbf 6905 c2be
00000260: 5911 72be b18d 5b3e 7734 e73e 56b0 573e
00000270: fc61 da3e aa7e 923e 492b 643e 55a7 2f3f
00000280: f4b4 053f e6ea b23f 09a3 d93e ae9d cdbe
00000290: 305c 953e eb27 b73e bcab b8be 64ed c63e
000002a0: b2a9 ae3e bb69 92be 8dc1 bb3e 8749 213e
000002b0: 8cc5 303e 9472 6b3e 5db8 f9bd 15a8 6bbd
000002c0: a243 50bd c376 afbc ed6d b3bc 6be9 54bd
000002d0: 296c d8bd 1f65 babc 9363 61bc 8923 babe
000002e0: 90ba 8ebe eb96 89be 041f 113e 6374 12bd
000002f0: d82f 8f3b ad06 0d3d a6c9 98bc 6357 82bb
00000300: 96e4 133e e581 f43d e466 ca3d 5d6e fabe
00000310: 4ce5 27bf 561a eabe c45c cebc d22e f63d
00000320: 27e2 36be c624 92bd 328d 983e e92f 5d3b
00000330: 9fb6 33bf 4f03 c0be 4324 81bf 7e8c 073d
00000340: 5052 adbc b9a8 41bd 92fc 693d f72a cfba
00000350: a723 943d 3e14 09bd aa53 6abd 3f4c 25bc

tpcnns.0.bias f4 [4]
0.6878253 1.7465464 -3.3053105 0.6963125
00000000: 5215 303f d58e df3f 358a 53c0 8941 323f

tpcnns.1.weight f4 [4, 4, 3, 3]
-0.17445539 -0.05434275 0.29104042 -0.42016095 -0.06516211 -0.52512586 -0.56904286 0.75560695
-0.47804603 0.34973857 -0.3540815 0.32393104 0.79868406 -0.49212056 0.39360693 0.39453495
-0.7646324 0.23158969 -0.008479985 -0.093432754 -0.08493441 0.018894847 -0.058927204 -0.25394946
0.02245764 0.07285597 0.06273193 -0.09069113 0.07418219 -0.027233848 0.029894248 0.6301863
0.050641507 -0.2763623 0.16200402 -0.25468066 -0.22954337 -0.38333398 -0.20364346 -0.11381598
0.024620844 -0.18248767 -0.3991701 -0.23041551 -0.41425353 -0.07120189 1.1085206 -0.08422877
0.20346466 0.1317585 0.33143178 0.7429452 -0.36630583 0.69852525 0.07749666 0.10979684
0.079839006 -0.0067351502 0.052174978 0.0040411893 -0.16398631 -0.10182502 -0.21642755 0.42027557
0.76738614 0.12957549 -0.6540836 -0.5503943 -0.61653894 -0.026799928 0.18203272 -0.116790414
0.37156326 0.47969744 -0.60571414 0.22241338 -0.16532116 0.100428805 -0.24466091 0.47117037
0.9700873 0.4095399 0.18749934 -0.24204397 -0.5264267 -0.6277235 -0.026355721 0.12275274
-0.28296727 0.19193879 -0.2775904 0.23881385 0.6851105 -0.32496703 -0.60711807 -0.8674604
-0.36405528 0.613537 -0.21271294 -0.19521347 -0.4187798 -0.5368335 0.09681558 -0.09030354
-0.035704017 -0.021421343 -0.018714635 -0.12609555 0.40514922 -1.0940317 0.07758639 -2.0267316e-05
-0.013977132 -0.053628188 0.05230058 -0.45603168 0.08012243 0.23860435 0.6514629 0.5039439
-0.40095273 0.3659483 -0.44694743 -0.04141963 0.5979903 0.054839596 -0.057085007 0.12822913
-0.11362682 -0.059108783 0.12830298 -0.09408351 -0.072406806 0.10921965 -0.40832677 -0.12767759
0.3995198 -0.36532792 -0.5619928 0.032751042 -0.6993375 -0.23768991 -0.13347323 -0.021996435
00000000: 6fa4 32be 8196 5ebd 4003 953e 561f d7be
00000010: b673 85bd a66e 06bf cbac 11bf 756f 413f
00000020: 73c2 f4be ef10 b33e 2c4a b5be 4ada a53e
00000030: 8f76 4c3f 3af7 fbbe d986 c93e 7c00 ca3e
00000040: f3be 43bf d925 6d3e a3ef 0abc ac59 bfbd
00000050: 18f2 adbd 5ec9 9a3c a75d 71bd aa05 82be
00000060: 16f9 b73c 8335 953d 9979 803d 45bc b9bd
00000070: d5ec 973d 8519 dfbc c8e4 f43c e453 213f
00000080: 786d 4f3d 5c7f 8dbe 62e4 253e 8165 82be
00000090: 6b0d 6bbe 5a44 c4be e987 50be 5a18 e9bd
000000a0: a7b1 c93c 0cde 3abe 0660 ccbe 0bf2 6bbe
000000b0: 0a19 d4be 4cd2 91bd 01e4 8d3f 2280 acbd
000000c0: 0a59 503e b3eb 063e 6db1 a93e a831 3e3f
000000d0: 708c bbbe 8dd2 323f 92b6 9e3d 2add e03d
000000e0: a282 a33d 89b2 dcbb 6eb5 553d f46b 843b
000000f0: 07ec 27be a389 d0bd 2f9f 5dbe 5c2e d73e
00000100: 6b73 443f 70af 043e 0672 27bf a4e6 0cbf
00000110: 7fd5 1dbf 868b dbbc c966 3a3e d02f efbd
00000120: 8a3d be3e e79a f53e 1510 1bbf 55c0 633e
00000130: f349 29be 9ead cd3d 6488 7abe 3e3d f13e
00000140: a457 783f 37af d13e d4ff 3f3e 60da 77be
00000150: e6c3 06bf 7db2 20bf f4e7 d7bc ca65 fb3d
00000160: 16e1 90be 9a8b 443e 5420 8ebe 9e8b 743e
00000170: 6763 2f3f 1462 a6be 176c 1bbf e311 5ebf
00000180: 7465 babe c310 1d3f 6cd1 59be 0ae6 47be
00000190: 4e6a d6be ec6d 09bf 3f47 c63d 10f1 b8bd
000001a0: 603e 12bd d07b afbc 6f4f 99bc 311f 01be
000001b0: b86f cf3e 3b09 8cbf 9de5 9e3d bb03 aab7
000001c0: 5700 65bc 3ba9 5bbd 2239 563d fc7c e9be
000001d0: 3b17 a43d b354 743e 46c6 263f 7802 013f
000001e0: ad49 cdbe 935d bb3e 4bd6 e4be a1a7 29bd
000001f0: e415 193f 7c9f 603d f8d1 69bd 7f4e 033e
00000200: 2eb5 e8bd 0d1c 72bd db61 033e dbae c0bd
00000210: 054a 94bd 8dae df3d 3510 d1be eabd 02be
00000220: dc8d cc3e 430c bbbe c3de 0fbf f525 063d
00000230: c807 33bf fc64 73be 35ad 08be de31 b4bc

tpcnns.1.bias f4 [4]
-0.03260927 0.4213611 0.33048072 1.2316898
00000000: 4c91 05bd a4bc d73e c534 a93e 03a8 9d3f

tpcnns.2.weight f4 [4, 4, 3, 3]
-0.19049376 0.0030773303 -0.16140682 -0.016131336 -1.1084987 -0.058975704 0.0703374 0.16883583
0.06327647 -0.036461942 -0.46343803 0.06893482 0.46263534 -0.4344534 0.37166855 0.3701108
-0.5491269 0.24976364 0.1209701 0.048352316 -0.050204493 0.21853754 0.14597674 0.12311089
0.11159798 0.13239966 0.087945916 0.29446366 0.30988497 0.2277922 0.03833543 0.15393774
-0.018159812 -0.16920903 -0.08924509 -0.1014094 -0.05160439 0.2950868 -0.24156198 -0.08401109
0.15153822 -0.03616861 -0.28194144 0.26802152 -0.20176584 -0.060277347 -0.15578167 -0.21699283
0.005880685 -0.93118024 0.049787857 -0.19342999 0.16913132 -0.15929127 0.044950813 0.14437686
0.075445086 0.012888646 0.032370266 0.13646173 0.059418693 0.063699 -0.06926185 0.33555552
0.2835525 0.53787744 -0.011833113 -0.12198248 -0.063094355 0.18020234 -0.09605606 0.20166805
-0.09844126 -0.025308913 -0.123869225 0.10828673 -0.19366415 0.038151626 -0.13643695 0.14367113
-0.022875875 -0.057566803 0.016688764 -0.043913443 -0.01610317 0.119514816 -0.12620139 -0.04755746
0.0751231 -0.12977394 0.07199892 -0.03249496 -0.142696 -0.048315592 -1.0611788 0.095305964
-0.061160844 0.002968905 -0.005975901 -0.25946644 0.21947896 -0.1339168 -0.238682 0.21877459
-0.12144731 -0.15998511 0.09352547 -0.124672286 0.18812191 0.16371757 0.17391883 -0.048160397
0.035682883 0.11594965 -0.20695662 -0.078146525 -0.16662976 0.095010065 0.50118446 0.25785527
-0.30735496 0.034449376 -0.22045527 -0.1363277 0.35203654 -0.09325453 -0.22776468 -0.06834471
0.37450784 -0.10369989 -0.28350982 -0.61726314 -0.10909842 -0.16850258 -0.35971132 -0.5151344
-0.4117923 -0.5255029 -0.0048903036 -1.145506 -0.05622744 0.25233075 -0.03869622 0.2783088
00000000: cc10 43be 09ad 493b d447 25be dd25 84bc
00000010: 49e3 8dbf 8290 71bd 0e0d 903d 4de3 2c3e
00000020: 1897 813d 1e59 15bd c047 edbe b32d 8d3d
00000030: 8ade ec3e ad70 debe 574b be3e 2a7f bd3e
00000040: 9593 0cbf 0ac2 7f3e 2cbf f73d 140d 463d
00000050: 3aa3 4dbd 4ec8 5f3e ed7a 153e 9021 fc3d
00000060: 7b8d e43d c793 073e fd1c b43d f1c3 963e
00000070: 3ea9 9e3e 5c42 693e 9d05 1d3d dba1 1d3e
00000080: e3c3 94bc 2245 2dbe 21c6 b6bd bbaf cfbd
00000090: 205f 53bd 9e15 973e 065c 77be 020e acbd
000000a0: d62c 1b3e 8925 14bd a15a 90be 1e3a 893e
000000b0: b49b 4ebe 61e5 76bd 3b85 1fbe 5e33 5ebe
000000c0: c3b2 c03b d461 6ebf 5aee 4b3d 8312 46be
000000d0: c330 2d3e 401d 23be 581e 383d 87d7 133e
000000e0: f482 9a3d e62a 533c af96 043d a0bc 0b3e
000000f0: 0461 733d 9f74 823d 28d9 8dbd efcd ab3e
00000100: cb2d 913e 56b2 093f acdf 41bc f3d1 f9bd
00000110: 9d37 81bd f686 383e 0ab9 c4bd 1282 4e3e
00000120: 929b c9bd a354 cfbc 26af fdbd 6fc5 dd3d
00000130: e54f 46be e144 1c3d 21b6 0bbe 861e 133e
00000140: 3066 bbbc 2bcb 6bbd e0b6 883c 95de 33bd
00000150: ccea 83bc 2fc4 f43d f03a 01be 9ccb 42bd
00000160: 24da 993d 76e3 04be 2b74 933d 6f19 05bd
00000170: e61e 12be 92e6 45bd b5d4 87bf c62f c33d
00000180: cb83 7abd f691 423b 7ed1 c3bb c9d8 84be
00000190: 18bf 603e 7c21 09be 0e69 74be 7206 603e
000001a0: 5eb9 f8bd 23d3 23be 488a bf3d 2f54 ffbd
000001b0: 08a3 403e 94a5 273e c717 323e d643 45bd
000001c0: 3728 123d 0377 ed3d 70ec 53be 490b a0bd
000001d0: fea0 2abe a394 c23d a04d 003f 9b05 843e
000001e0: a15d 9dbe ca1a 0d3d 07bf 61be 7d99 0bbe
000001f0: 223e b43e 3bfc bebd 253b 69be 50f8 8bbd
00000200: 7ebf bf3e 9c60 d4bd 3328 91be f504 1ebf
00000210: fe6e dfbd f18b 2cbe 152c b8be d9df 03bf
00000220: 71d6 d2be 5c87 06bf d73e a0bb f19f 92bf
00000230: be4e 66bd 7f31 813e ed7f 1ebd 7e7e 8e3e

tpcnns.2.bias f4 [4]
-0.26220083 -0.6222962 -0.16983537 0.45621538
00000000: 303f 86be ce4e 1fbf 53e9 2dbe 1095 e93e

tpcnns.3.weight f4 [4, 4, 3, 3]
-1.023052 0.9458057 -0.70220894 -0.54870915 0.2653149 -0.73729765 -0.43867067 0.68170595
-0.1301295 -0.19768986 -0.58759844 -0.22755049 0.041713648 0.14825748 -0.21556166 -0.3571354
-0.32125098 -0.34797367 -0.14650789 0.61940676 -0.18185976 0.01910342 0.24120784 -0.15258248
0.12570426 -0.3501688 0.13638818 -0.24819797 -0.45260054 -0.18259208 -0.06287583 -0.30302453
-0.15276195 -0.25017336 -0.5382442 0.01421823 -0.28775147 0.14905167 -0.25265244 0.013768684
0.011142671 -0.23513018 0.104529135 0.20824814 0.23817469 -1.2338513 0.35192463 -0.8582392
-1.016316 0.8252284 -0.76815724 -1.1580855 0.47702992 -0.92564005 0.07013591 -0.092055276
0.10838643 -0.34950367 0.1848061 -0.06710048 -0.46096557 -0.3522221 -0.12474221 -0.37503853
-0.36865336 -0.16871434 -0.31351042 -0.17615019 -0.16260597 -0.4517765 -0.19929205 -0.25672883
-0.1397721 0.11552673 -0.12015972 -0.19152114 0.11995942 -0.0346767 -0.0038655351 -0.42297927
0.12031393 0.00038935393 -0.22366859 0.015445944 0.08472013 0.04831066 0.13144816 -0.20518307
0.10317435 -0.044670124 -0.2515043 -0.015665462 -0.058688387 -0.36614105 -0.7829952 -0.20738322
-0.3146214 0.11975525 -0.12183702 -0.09778639 0.08191802 -0.1775637 -0.17110856 -0.060802214
0.0047804047 0.57585347 0.48341236 0.4079306 -0.18190004 -0.08203553 -0.14509965 0.3909062
-0.055485215 0.0072742766 0.31369025 -0.05023903 -0.064146385 -0.17405725 -0.22400308 -0.06409377
-0.3178433 -0.019018523 -0.097719155 0.029215306 -0.08579466 -0.07211333 -1.2098296 -0.30478474
-0.080706365 0.2210438 -0.07600345 -0.08167889 0.26123735 -0.09084611 -0.109600306 0.88893795
0.123421974 0.11302721 0.547733 -1.0140983 -0.95876855 0.16235861 0.0487465 0.063116156
00000000: 5ef3 82bf 5320 723f f7c3 33bf 3478 0cbf
00000010: 5bd7 873e 8abf 3cbf 7199 e0be 4884 2e3f
00000020: ab40 05be 366f 4abe da6c 16bf ff02 69be
00000030: eedb 2a3d cfd0 173e 32bc 5cbe 73da b6be
00000040: 027b a4be 9b29 b2be 2a06 16be 7191 1e3f
00000050: 7239 3abe c77e 9c3c 30ff 763e 953e 1cbe
00000060: 9eb8 003e 5349 b3be 58a9 0b3e 9c27 7ebe
00000070: 42bb e7be 6bf9 3abe 0bc5 80bd 0826 9bbe
00000080: a16d 1cbe b916 80be 5fca 09bf 94f3 683c
00000090: 2954 93be 00a1 183e a95b 81be 0c96 613c
000000a0: c08f 363c f7c5 70be 5f13 d63d 003f 553e
000000b0: 11e4 733e d7ee 9dbf 772f b43e 90b5 5bbf
000000c0: a516 82bf 2b42 533f f4a5 44bf 253c 94bf
000000d0: 443d f43e bff6 6cbf 6aa3 8f3d 7a87 bcbd
000000e0: b4f9 dd3d 25f2 b2be cf3d 3d3e fa6b 89bd
000000f0: ae03 ecbe 7556 b4be d878 ffbd 0d05 c0be
00000100: 22c0 bcbe 74c3 2cbe 7084 a0be b760 34be
00000110: 2e82 26be 404f e7be 3713 4cbe f671 83be
00000120: 6b20 0fbe 4799 ec3d 4d16 f6bd 1e1e 44be
00000130: 49ad f53d 2809 0ebd eb54 7dbb bd90 d8be
00000140: 2667 f63d 3322 cc39 6109 65be fc10 7d3c
00000150: bf81 ad3d 66e1 453d 599a 063e 831b 52be
00000160: 134d d33d 05f8 36bd 2cc5 80be db54 80bc
00000170: 3c63 70bd d776 bbbe 6072 48bf 445c 54be
00000180: 0e16 a1be 3e42 f53d b085 f9bd 3b44 c8bd
00000190: a3c4 a73d 42d3 35be 1537 2fbe be0b 79bd
000001a0: f1a4 9c3b 226b 133f d381 f73e 48dc d03e
000001b0: 0144 3abe 3e02 a8bd 0195 14be dc24 c83e
000001c0: 7744 63bd 0e5d ee3b 029c a03e 71c7 4dbd
000001d0: 2e5f 83bd 103c 32be 1061 65be 9843 83bd
000001e0: 5bbc a2be bccc 9bbc fb20 c8bd f054 ef3c
000001f0: 1cb5 afbd 27b0 93bd b2db 9abf bf0c 9cbe
00000200: 6149 a5bd 4e59 623e b2a7 9bbd 4347 a7bd
00000210: e7c0 853e 860d babd 2076 e0bd 7091 633f
00000220: a9c4 fc3d cf7a e73d 3b38 0c3f f9cd 81bf
00000230: db71 75bf 5641 263e 69aa 473d 0b43 813d

tpcnns.3.bias f4 [4]
-0.6427436 -0.70804477 0.015078269 -0.26218957
00000000: d88a 24bf 6c42 35bf d80a 773c b63d 86be

tpcnns.4.weight f4 [4, 4, 3, 3]
0.06269401 0.13198599 0.102527425 0.09656783 0.16654311 0.09178072 0.11064164 0.02316918
0.020795008 0.055126827 -0.09318501 -0.08409663 -0.019677281 0.12800251 0.036587756 0.044804495
0.046380125 -0.06762022 0.117873475 -0.029142242 0.1623023 0.03711508 0.06814148 -0.12518844
-0.010216733 0.035167597 0.1473228 0.089401126 0.092859134 -0.14481287 0.16372785 -0.09788581
0.14650607 0.0009692311 0.15496323 0.06388502 0.07856904 -0.09440035 0.12506752 -0.14924434
-0.110023364 -0.033235073 0.13359267 0.013140082 -0.12814811 0.1504306 -0.15356198 -0.044747435
-0.118925 0.0016228359 -0.08999475 -0.01796053 -0.032443427 -0.15779686 0.1047016 0.0021172564
0.064162955 -0.06276264 -0.036811274 0.10621687 -0.025727212 0.059876263 0.034468632 0.014728248
-0.08566847 -0.10336252 0.08677988 -0.07081356 -0.12270107 -0.103932105 -0.025360703 0.088550806
-0.09524759 0.028934222 -0.10100858 -0.09130367 0.06305915 -0.1269921 0.12501964 -0.09031352
0.07785533 0.078015886 -0.13399303 -0.082391724 -0.12396787 -0.112269126 -0.12917267 0.038543426
-0.11817448 0.11544448 -0.14103255 -0.026699126 -0.030630013 -0.122530304 0.14694026 -0.11981933
-0.010969341 0.13295466 0.042925358 -0.12206026 0.012766342 0.030867716 -0.019261062 0.006796559
0.11573398 0.034793597 0.10974537 -0.06788355 0.045551024 0.13486299 -0.01889062 -0.09740262
0.12744075 0.07866649 0.0064576073 0.028473955 0.07463547 0.05962485 0.10332795 -0.07726912
0.14411083 -0.13723288 -0.052199148 -0.022374392 0.07280215 -0.0606791 0.096002266 -0.051329356
-0.031798344 -0.05220797 -0.051394463 -0.14606112 -0.04170847 0.027818143 -0.056574427 0.14474007
-0.1135152 0.067490004 -0.060055375 -0.068326294 -0.05656495 0.09295213 -0.0038933158 0.03438002
00000000: b865 803d 5627 073e e6f9 d13d 5bc5 c53d
00000010: 478a 2a3e 88f7 bb3d 1698 e23d 4bcd bd3c
00000020: 4b5a aa3c abcc 613d c8d7 bebd db3a acbd
00000030: 4032 a1bc 1713 033e 0bdd 153d eb84 373d
00000040: 16f9 3d3d 787c 8abd a667 f13d b6bb eebc
00000050: 9332 263e fb05 183d c38d 8b3d 6631 00be
00000060: 1664 27bc e60b 103d cadb 163e f017 b73d
00000070: ee2c be3d d349 14be 46a8 273e 5b78 c8bd
00000080: b005 163e 0014 7e3a aeae 1e3e 26d6 823d
00000090: cee8 a03d f854 c1bd b311 003e 82d3 18be
000000a0: ee53 e1bd 8021 08bd 84cc 083e 8049 573c
000000b0: 4239 03be 7b0a 1a3e 5a3f 1dbe 1649 37bd
000000c0: f38e f3bd 56b5 d43a 2b4f b8bd f621 93bc
000000d0: 66e3 04bd 8095 21be cb6d d63d abc1 0a3b
000000e0: de67 833d b389 80bd 6bc7 16bd 3b88 d93d
000000f0: e0c1 d2bc d040 753d fb2e 0d3d c04e 713c
00000100: f372 afbd bbaf d3bd a6b9 b13d b306 91bd
00000110: b34a fbbd 5bda d4bd 40c1 cfbc 205a b53d
00000120: 2b11 c3bd 7607 ed3c 96dd cebd 6bfd babd
00000130: 2825 813d 380a 02be 2605 003e 4bf6 b8bd
00000140: 9e72 9f3d cbc6 9f3d 7835 09be febc a8bd
00000150: dee2 fdbd 5bed e5bd d745 04be b6df 1d3d
00000160: 7605 f2bd 286e ec3d d66a 10be 20b8 dabc
00000170: cbeb fabc 2bf1 fabd 8277 163e d663 f5bd
00000180: c0b8 33bc 4425 083e 80d2 2f3d bbfa f9bd
00000190: eb29 513c 4bde fc3c 60c9 9dbc abb5 de3b
000001a0: f005 ed3d bb83 0e3d 2ec2 e03d 8806 8bbd
000001b0: b693 3a3d 8619 0a3e 80c0 9abc 067b c7bd
000001c0: d47f 023e e61b a13d 569a d33b 3642 e93c
000001d0: 7bda 983d 3039 743d 9b9d d33d 463f 9ebd
000001e0: ca91 133e c786 0cbe c6ce 55bd 804a b7bc
000001f0: 4b19 953d a68a 78bd d69c c43d bb3e 52bd
00000200: fb3e 02bd 06d8 55bd 0083 52bd 0c91 15be
00000210: 80d6 2abd e0e2 e33c 96ba 67bd be36 143e
00000220: a87a e8bd 3338 8a3d a0fc 75bd a8ee 8bbd
00000230: a6b0 67bd b05d be3d 0027 7fbb 10d2 0c3d

tpcnns.4.bias f4 [4]
0.08682625 0.030455729 -0.03844448 0.02269431
00000000: f6d1 b13d 4b7e f93c f677 1dbd 6be9 b93c

tpcnn_ouput.weight f4 [4, 4, 3, 3]
0.17933646 -0.15893023 0.13392349 0.006190776 0.004083665 -0.013000496 -0.030183177 0.025044413
-0.014111801 0.021522898 -0.044983294 0.06058914 -0.13465858 0.10928471 -0.08948433 -0.16693753
0.15772328 -0.15083866 0.025536766 -0.014717322 0.01628517 -0.0009145375 -0.005522835 0.01329583
-0.0212062 0.018210797 -0.01585328 0.052968793 -0.03177994 0.025303146 0.016720604 -0.02561178
0.013481217 0.016361201 -0.018517008 0.026232488 -0.24989416 -0.0055470234 -0.14206277 0.10107723
-0.09691141 0.024508582 0.27734455 -0.17793739 0.17782778 0.1154791 0.0015416079 0.04701951
-0.06723034 -0.035886742 -0.043735344 -0.03074755 0.022767728 0.031249195 0.21082626 -0.10511949
0.12800513 0.1351896 -0.11982171 0.064268276 -0.09824556 0.08838553 -0.052581232 -1.0473214
-0.9823599 -0.90667194 -0.024748249 0.018150661 -0.025348103 0.060443908 0.065846376 0.030731479
0.14439277 0.28205073 0.27267265 0.10838386 0.049489073 -0.016958525 -0.10264248 -0.051889468
-0.006692842 -0.35200214 -0.3319051 -0.29366618 -0.14688727 -0.2018744 -0.12227679 0.2208524
0.09631995 0.07485671 0.022871219 -0.08745793 0.12887684 -0.20807138 -0.45918128 -0.14142309
-0.5133084 -0.8436754 -0.5355922 -0.7944885 -0.79403305 -0.7016287 -0.1710747 0.00051673024
0.044502847 -0.5253288 -0.57480866 -0.82316166 -0.13024615 0.019386914 -0.0075457618 0.14734498
0.06423327 0.012227836 0.019088266 0.07201075 0.12748982 0.04980772 0.031527914 0.026987368
-0.055259515 -0.10501291 -0.031859178 -0.08980657 -0.17100173 -0.20150347 0.13708495 0.06695675
0.24338397 0.09230683 -0.09307526 0.16373444 -0.4812397 -0.80960834 -0.5135664 0.058499496
-0.003213989 0.07346569 -0.10009501 -0.03940321 0.06570824 0.037302684 -0.07301834 -0.20528817
00000000: faa3 373e 9bbe 22be 3d23 093e fedb ca3b
00000010: 44d0 853b 0800 55bc b642 f7bc f129 cd3c
00000020: 2f35 67bc ca50 b03c 6740 38bd 512c 783d
00000030: f0e3 09be a9d0 df3d 8f43 b7bd acf1 2abe
00000040: 3682 213e 7375 1abe 7b32 d13c ec20 71bc
00000050: 7a68 853c 93bd 6fba e6f8 b4bb c1d6 593c
00000060: a0b8 adbc cf2e 953c bdde 81bc cef5 583d
00000070: af2b 02bd 8b48 cf3c a6f9 883c cccf d1bc
00000080: 53e0 5c3c ed07 863c fbb0 97bc 84e5 d63c
00000090: 41e4 7fbe cec3 b5bb e778 11be 9401 cf3d
000000a0: 7d79 c6bd 39c6 c83c 1b00 8e3e 3835 36be
000000b0: 7c18 363e 4e80 ec3d c70f ca3a 8897 403d
000000c0: 0fb0 89bd fafd 12bd d523 33bd 49e2 fbbc
000000d0: 6383 ba3c 50fe ff3c d7e2 573e e348 d7bd
000000e0: c713 033e 246f 0a3e 1665 f5bd 169f 833d
000000f0: f834 c9bd 7903 b53d 6b5f 57bd a10e 86bf
00000100: f07b 7bbf a71b 68bf d7bc cabc b2b0 943c
00000110: d3a6 cfbc 0894 773d 77da 863d 95c0 fb3c
00000120: b3db 133e f468 903e c09b 8b3e 5bf8 dd3d
00000130: 0eb5 4a3d 9bec 8abc 3836 d2bd 0d8a 54bd
00000140: a14f dbbb a039 b4be 77ef a9be 6a5b 96be
00000150: 9e69 16be 2ab8 4ebe 416c fabd 2227 623e
00000160: 6543 c53d 7a4e 993d 6c5c bb3c 251d b3bd
00000170: 4af8 033e aa10 55be cf19 ebbe 37d1 10be
00000180: 2e68 03bf 1cfb 57bf 921c 09bf 9963 4bbf
00000190: c045 4bbf f09d 33bf 352e 2fbe 2e75 073a
000001a0: 9e48 363d f37b 06bf a926 13bf b9ba 52bf
000001b0: 3f5f 05be 4ed1 9e3c 7042 f7bb 9ae1 163e
000001c0: bc8c 833d 4357 483c ff5e 9c3c 5f7a 933d
000001d0: b18c 023e 2e03 4c3d 6a23 013d 9d14 dd3c
000001e0: cd57 62bd 0211 d7bd c57e 02bd 82ec b7bd
000001f0: 141b 2fbe ed56 4ebe ff5f 0c3e 9f20 893d
00000200: a639 793e 5d0b bd3d 3e9e bebd 00aa 273e
00000210: 0d65 f6be 7e42 4fbf 1679 03bf 2b9d 6f3d
00000220: caa1 52bb 2e75 963d 9dfe ccbd 4365 21bd
00000230: 0b92 863d b3ca 183d a48a 95bd 1037 52be

tpcnn_ouput.bias f4 [4]
0.0013028922 -0.093277164 -0.57102644 -0.09203708
00000000: cfc5 aa3a 1908 bfbd ca2e 12bf f07d bcbd
